system/system/etc/ipm/auf.tflite (tflite, 389936 bytes, 6 tensors)

Recent_Layer1/MatMul_bias f4 [160]
0.0 0.0 0.0 0.0 0.0 0.0 0.0 0.0
0.0 0.0 0.0 0.0 0.0 0.0 0.0 0.0
0.0 0.0 0.0 0.0 0.0 0.0 0.0 0.0
0.0 0.0 0.0 0.0 0.0 0.0 0.0 0.0
0.0 0.0 0.0 0.0 0.0 0.0 0.0 0.0
0.0 0.0 0.0 0.0 0.0 0.0 0.0 0.0
0.0 0.0 0.0 0.0 0.0 0.0 0.0 0.0
0.0 0.0 0.0 0.0 0.0 0.0 0.0 0.0
0.0 0.0 0.0 0.0 0.0 0.0 0.0 0.0
0.0 0.0 0.0 0.0 0.0 0.0 0.0 0.0
0.0 0.0 0.0 0.0 0.0 0.0 0.0 0.0
0.0 0.0 0.0 0.0 0.0 0.0 0.0 0.0
0.0 0.0 0.0 0.0 0.0 0.0 0.0 0.0
0.0 0.0 0.0 0.0 0.0 0.0 0.0 0.0
0.0 0.0 0.0 0.0 0.0 0.0 0.0 0.0
0.0 0.0 0.0 0.0 0.0 0.0 0.0 0.0
0.0 0.0 0.0 0.0 0.0 0.0 0.0 0.0
0.0 0.0 0.0 0.0 0.0 0.0 0.0 0.0
0.0 0.0 0.0 0.0 0.0 0.0 0.0 0.0
0.0 0.0 0.0 0.0 0.0 0.0 0.0 0.0
00000000: 0000 0000 0000 0000 0000 0000 0000 0000
00000010: 0000 0000 0000 0000 0000 0000 0000 0000
00000020: 0000 0000 0000 0000 0000 0000 0000 0000
00000030: 0000 0000 0000 0000 0000 0000 0000 0000
00000040: 0000 0000 0000 0000 0000 0000 0000 0000
00000050: 0000 0000 0000 0000 0000 0000 0000 0000
00000060: 0000 0000 0000 0000 0000 0000 0000 0000
00000070: 0000 0000 0000 0000 0000 0000 0000 0000
00000080: 0000 0000 0000 0000 0000 0000 0000 0000
00000090: 0000 0000 0000 0000 0000 0000 0000 0000
000000a0: 0000 0000 0000 0000 0000 0000 0000 0000
000000b0: 0000 0000 0000 0000 0000 0000 0000 0000
000000c0: 0000 0000 0000 0000 0000 0000 0000 0000
000000d0: 0000 0000 0000 0000 0000 0000 0000 0000
000000e0: 0000 0000 0000 0000 0000 0000 0000 0000
000000f0: 0000 0000 0000 0000 0000 0000 0000 0000
00000100: 0000 0000 0000 0000 0000 0000 0000 0000
00000110: 0000 0000 0000 0000 0000 0000 0000 0000
00000120: 0000 0000 0000 0000 0000 0000 0000 0000
00000130: 0000 0000 0000 0000 0000 0000 0000 0000
00000140: 0000 0000 0000 0000 0000 0000 0000 0000
00000150: 0000 0000 0000 0000 0000 0000 0000 0000
00000160: 0000 0000 0000 0000 0000 0000 0000 0000
00000170: 0000 0000 0000 0000 0000 0000 0000 0000
00000180: 0000 0000 0000 0000 0000 0000 0000 0000
00000190: 0000 0000 0000 0000 0000 0000 0000 0000
000001a0: 0000 0000 0000 0000 0000 0000 0000 0000
000001b0: 0000 0000 0000 0000 0000 0000 0000 0000
000001c0: 0000 0000 0000 0000 0000 0000 0000 0000
000001d0: 0000 0000 0000 0000 0000 0000 0000 0000
000001e0: 0000 0000 0000 0000 0000 0000 0000 0000
000001f0: 0000 0000 0000 0000 0000 0000 0000 0000
00000200: 0000 0000 0000 0000 0000 0000 0000 0000
00000210: 0000 0000 0000 0000 0000 0000 0000 0000
00000220: 0000 0000 0000 0000 0000 0000 0000 0000
00000230: 0000 0000 0000 0000 0000 0000 0000 0000
00000240: 0000 0000 0000 0000 0000 0000 0000 0000
00000250: 0000 0000 0000 0000 0000 0000 0000 0000
00000260: 0000 0000 0000 0000 0000 0000 0000 0000
00000270: 0000 0000 0000 0000 0000 0000 0000 0000

Recent_Layer1/RecentL1_Weight/transpose f4 [160, 168]
0.045343325 0.05491891 0.030023504 0.08429913 0.08425352 -0.03005291 -0.026961839 0.11759164
0.071182884 0.026060343 -0.010432454 -0.0026731743 0.052888267 0.049181916 -0.0021109974 0.013890764
0.07299297 0.053683504 0.06790293 0.07886197 0.09200441 0.022432758 0.091081336 -0.006549202
0.06675674 -0.013367309 0.0029767377 0.10133274 0.0039985883 -0.0041792407 -0.037868764 0.08369744
0.06912577 0.03041281 -0.06772766 -0.04417814 0.07966756 -0.002646362 0.06780518 -0.03925513
-0.038815856 0.041393742 0.022165552 0.034710146 -0.010758622 -0.023067921 0.07199364 -0.026315844
0.06966989 -0.005306442 0.017983044 -0.02378945 0.04744518 0.07630768 0.13450815 -0.0040374817
0.1242428 0.028124616 0.072953135 -0.04014485 0.009649327 -0.02750521 0.08581218 0.08011133
0.12092886 0.012194008 -0.07037023 0.0018691459 0.15519327 0.03124794 0.03295582 -0.039378755
0.045392737 -0.00037543612 0.026235152 0.07827889 0.08612347 0.06471888 0.07120182 -0.025712475
0.061631896 0.045410894 0.028660273 0.015479442 0.057332717 -0.06480445 0.14031653 -0.045284282
0.13178594 0.1155066 0.030733425 0.11864126 0.011109878 -0.028813437 -0.010165277 0.005945451
0.030337656 -0.010531286 0.079507835 0.094231635 0.020842845 0.062813014 -0.040571697 -0.03141337
0.059784435 0.07529505 0.022204125 0.07050054 -0.08185274 -0.03366321 -0.024100577 -0.039976634
0.050274156 0.03702889 0.10816532 0.06309493 0.042926036 0.10242188 0.10960941 -0.034203075
0.12188219 0.036786538 -0.099479765 0.06717988 -0.07509236 0.027526334 0.032293033 0.09956163
0.11112463 -0.009196714 0.011322616 0.0072819595 -0.052712396 -0.0061418065 0.058877014 0.056954872
0.14200656 0.1073961 0.12833406 0.08347729 0.103824124 0.046260286 0.02162075 0.116442025
0.0929165 0.010845775 -0.004939065 -0.04823107 -0.044715136 -0.07305783 -0.007818683 0.105665825
0.121110454 -0.026547192 -0.010124823 -0.028152987 0.0028122843 -0.0015475297 -0.041849744 0.0450665
0.061255947 0.033577256 0.11799379 0.026339335 0.021808654 0.07008929 -0.028862562 0.044070266
0.09394535 -0.042668086 -0.05031738 0.08647109 0.012936091 0.029948654 -0.06701175 -0.010947031
0.08805432 0.06396018 0.09185342 0.027697096 -0.0083636455 -0.059888937 0.059764095 -0.09444081
0.02558412 -0.11100637 0.043615974 0.029581724 0.065985456 0.051134888 0.06529096 -0.025920179
0.053162575 0.14217247 0.025877899 0.0264708 0.04985221 0.04528726 -0.0003150473 0.02577879
-0.028387621 0.064288 -0.0059953723 0.028803706 -0.06686937 -0.013920329 -0.029550435 -0.0032751337
-0.05379132 -0.13437518 -0.06569389 -0.028424216 0.13069953 -0.025974412 0.09430863 0.077236116
0.037541572 0.02930022 -0.011080891 0.03411281 -0.025671318 0.054137304 0.0724515 -0.09715623
0.08464377 0.0030724786 0.0668561 -0.018085793 -0.016517619 -0.035106096 -0.063250594 -0.06614761
-0.10093013 -0.06285605 -0.02162925 0.06260419 0.07680704 -0.017512888 0.021271043 0.046737574
-0.009605841 0.055005096 0.031102713 0.061930273 0.00820781 0.007853332 -0.048643116 0.03889809
-0.030581921 0.12489915 0.056070603 0.04921312 -0.0037370548 0.025433058 0.00506757 -0.007347209
00000000: ecb9 393d a7f2 603d daf3 f53c 06a5 ac3d
00000010: 1c8d ac3d 8531 f6bc 13df dcbc e3d3 f03d
00000020: 55c8 913d 807c d53c e2ec 2abc 6c30 2fbb
00000030: 5ea1 583d fa72 493d a958 0abb 1696 633c
00000040: 577d 953d 3ce3 5b3d b110 8b3d 6282 a13d
00000050: cf6c bc3d e7c4 b73c da88 ba3d b09a d6bb
00000060: c2b7 883d 8f02 5bbc 5f15 433b 8a87 cf3d
00000070: 9706 833b 03f2 88bb 471c 1bbd 9069 ab3d
00000080: d091 8d3d 4924 f93c cdb4 8abd 23f4 34bd
00000090: bf28 a33d 966e 2dbb 71dd 8a3d fdc9 20bd
000000a0: 60fd 1ebd 7c8c 293d 8894 b53c 3a2c 0e3d
000000b0: ee44 30bc f0f8 bcbc 6771 933d 5394 d7bc
000000c0: 16af 8e3d a9e1 adbb 2d51 933c 18e2 c2bc
000000d0: e155 423d 3347 9c3d 81bc 093e da4c 84bb
000000e0: 0273 fe3d 9865 e63c 7468 953d ed6e 24bd
000000f0: 3618 1e3c 9b52 e1bc 4cbe af3d 6911 a43d
00000100: 8da9 f73d 60c9 473c 441e 90bd 21fe f43a
00000110: fcea 1e3e aefb ff3c affc 063d 9e4b 21bd
00000120: bced 393d 2fd6 c4b9 1aeb d63c af50 a03d
00000130: 8061 b03d 558b 843d 43d2 913d f8a2 d2bc
00000140: ba71 7c3d c600 3a3d f3c8 ea3c 7c9d 7d3c
00000150: b6d5 6a3d 32b8 84bd 23af 0f3e 037c 39bd
00000160: e5f2 063e b98e ec3d aac4 fb3c 30fa f23d
00000170: 3506 363c 280a ecbc 438c 26bc 0fd2 c23b
00000180: ad86 f83c 6a8b 2cbc 01d5 a23d 84fc c03d
00000190: 9dbe aa3c 1ca4 803d 822e 26bd 4eab 00bd
000001a0: 86e0 743d 4b34 9a3d 6de5 b53c 9662 903d
000001b0: 69a2 a7bd 6fe2 09bd 936e c5bc 8abe 23bd
000001c0: 46ec 4d3d 9bab 173d c785 dd3d ea37 813d
000001d0: 36d3 2f3d 90c2 d13d e67a e03d 8618 0cbd
000001e0: 5f9d f93d 7bad 163d 0cbc cbbd 9b95 893d
000001f0: 06ca 99bd e87e e13c b345 043d f8e6 cb3d
00000200: 4f95 e33d d0ad 16bc 7e82 393c 819d ee3b
00000210: f4e8 57bd 3541 c9bb 0629 713d 8349 693d
00000220: 2b6a 113e 7df2 db3d 016a 033e 24f6 aa3d
00000230: bea1 d43d 6d7b 3d3d 001e b13c 2879 ee3d
00000240: 024b be3d 7ab2 313c e1d7 a1bb f18d 45bd
00000250: 3827 37bd 589f 95bd ef19 00bc 5367 d83d
00000260: c208 f83d 7f79 d9bc 96e2 25bc 18a1 e6bc
00000270: 4d4e 383b 7bd6 caba a36a 2bbd a697 383d
00000280: 84e7 7a3d 4e88 093d baa6 f13d 97c5 d73c
00000290: 10a8 b23c f98a 8f3d 2e71 ecbc 0683 343d
000002a0: 6b66 c03d bbc4 2ebd 9919 4ebd c117 b13d
000002b0: e6f1 533c e156 f53c 753d 89bd 2d5b 33bc
000002c0: d355 b43d 8efd 823d a51d bc3d 05e5 e23c
000002d0: ac07 09bc 1a4e 75bd 32cb 743d 2f6a c1bd
000002e0: ca95 d13c 4f57 e3bd aaa6 323d 5f55 f23c
000002f0: 6223 873d d172 513d 44b7 853d 8e56 d4bc
00000300: 00c1 593d a995 113e e3fd d33c 4bd9 d83c
00000310: d531 4c3d 227f 393d ef2c a5b9 0a2e d33c
00000320: 288d e8bc 6da9 833d d474 c4bb c0f5 eb3c
00000330: cff2 88bd 1712 64bc c113 f2bc a0a3 56bb
00000340: 4a54 5cbd a699 09be 858a 86bd e7d9 e8bc
00000350: 19d6 053e 4ac8 d4bc e224 c13d f82d 9e3d
00000360: 31c5 193d 0407 f03c a08c 35bc e0b9 0b3d
00000370: a84c d2bc 14bf 5d3d 7461 943d d8f9 c6bd
00000380: b659 ad3d a35b 493b daeb 883d a828 94bc
00000390: f54f 87bc 69cb 0fbd 8789 81bd 6678 87bd
000003a0: 75b4 cebd acba 80bd d32f b1bc a036 803d
000003b0: 024d 9d3d 3077 8fbc 9c40 ae3c e66f 3f3d
000003c0: d161 1dbc 064d 613d 1ecb fe3c 99aa 7d3d
000003d0: 0d7a 063c 43ab 003c 013e 47bd 9b53 1f3d
000003e0: f086 fabc 20cb ff3d 4aaa 653d b293 493d
000003f0: 60e9 74bb fd58 d03c dc0d a63b dbc0 f0bb

Recent_Layer2/RecentL2_Weight/transpose f4 [160, 160]
-0.13980809 -0.15084565 0.041953295 0.027958374 0.052802265 0.050159466 -0.037464768 -0.092033066
-0.041882105 -0.11742553 0.016055332 0.037721492 0.028887887 0.020232113 0.034712106 -0.09254916
0.057130147 0.008357292 -0.09382914 0.099180184 0.012827249 0.033823263 0.033425823 0.0101321135
-0.11848838 0.034756247 -0.07425119 0.062850505 -0.06858289 0.043902583 -0.14504908 0.06809152
-0.07261389 0.0032600209 0.09093767 0.03117807 -0.013444172 -0.062490504 -0.14716624 -0.11893147
0.07653922 -0.08716997 0.03583196 -0.09100897 -0.14269738 0.0797353 -0.06400839 -0.061516143
0.096286 -0.047350477 0.08573646 0.010031703 0.050852176 0.015635097 -0.017321851 -0.0115937125
0.12349783 0.06848809 -0.09288508 0.10933116 -0.035779655 0.034762084 0.09274682 0.049881276
0.010420773 0.03206802 -0.121955484 -0.018552518 -0.10484131 -0.07502904 -0.12641487 -0.118981674
-0.12175291 -0.1360939 0.07060403 -0.062997416 -0.15270616 -0.12375278 -0.103058845 -0.035688456
0.08399496 0.11113638 -0.03757252 -0.115545645 -0.040799193 0.06318164 -0.11413446 -0.14730133
0.06180676 -0.09084344 0.071476355 -0.08173051 -0.067493185 0.06286883 -0.005351103 -0.15016855
-0.07807732 0.10335894 -0.09787678 0.04399641 0.07450759 0.09571097 0.08677667 -0.08448029
0.010628148 -0.041384153 0.008034664 0.08633977 -0.048022598 -0.016029565 -0.046773672 -0.09776283
0.10937327 0.0053340625 -0.135242 -0.07309682 -0.09277601 -0.0054739616 -0.08072122 -0.11202298
-0.029706832 0.08218471 -0.14418991 0.08325181 0.029789928 0.01768622 -0.1284745 -0.10430538
0.08965334 -0.1162615 -0.09604882 0.085426174 -0.11709844 0.060833342 0.087677315 -0.15535541
-0.016846644 -0.120704666 0.031948417 -0.14957829 0.088946566 0.095786005 0.026816621 -0.113785654
-0.051772818 -0.031667553 0.06397812 0.10069309 0.009184235 -0.037333984 -0.051612973 -0.037381865
-0.0139278285 -0.02213254 0.0935317 0.04242237 -0.09332939 -0.03603093 -0.03122608 -0.1276404
0.052682515 -0.06561605 -0.08884239 0.11355586 0.08437855 -0.017100368 -0.12211312 -0.12693517
-0.118232355 -0.085674025 0.0079208 -0.015314187 0.003945153 -0.13002948 -0.07363479 0.061688576
-0.07055081 0.101202406 -0.11476228 0.025022529 -0.08885227 -0.14303017 0.009304717 0.017661154
0.0019202699 0.04133104 -0.12304743 -0.08110574 -0.099061675 0.1179897 -0.008164862 -0.014644479
-0.10436664 0.10030604 -0.07696879 -0.13587886 0.02238108 -0.03809785 -0.08596389 0.039124884
-0.03085648 -0.06861792 -0.0656673 0.059874862 -0.09640601 -0.090675585 -0.08926922 0.06451708
0.013789977 -0.043341413 -0.098440945 -0.13020252 -0.06309995 0.006430594 0.059209507 -0.10389484
-0.004597357 -0.12632245 0.0018265875 -0.015815478 0.101634316 -0.057641488 -0.033426154 -0.080559835
-0.0469764 -0.08256308 -0.044544697 -0.13884315 0.10568735 -0.15205713 0.02385461 0.052355222
-0.044890076 0.0045751114 0.019144185 -0.060530424 0.08238785 -0.046323787 -0.049887776 -0.12429037
0.0138232 0.049312554 -0.023386518 0.06519052 -0.059355985 0.09833819 0.046060223 -0.050174993
0.0211248 -0.09245014 -0.07741646 0.08239886 0.090947285 -0.055905763 -0.1447592 -0.15199882
00000000: da29 0fbe 4877 1abe 38d7 2b3d f608 e53c
00000010: 3047 583d 0374 4d3d a874 19bd d57b bcbd
00000020: 928c 2bbd cc7c f0bd 7986 833c da81 1a3d
00000030: 4aa6 ec3c d1bd a53c 482e 0e3d 6a8a bdbd
00000040: 4d01 6a3d 06ed 083c 7e29 c0bd fb1e cb3d
00000050: 6229 523c 438a 0a3d 84e9 083d 2a01 263c
00000060: 09aa f2bd 915c 0e3d 0211 98bd c4b7 803d
00000070: 3075 8cbd 32d3 333d bf87 14be 9173 8b3d
00000080: 97b6 94bd 13a6 553b 873d ba3d 2769 ff3c
00000090: f244 5cbc 0bf6 7fbd bfb2 16be 5892 f3bd
000000a0: 98c0 9c3d 2b86 b2bd 89c4 123d e962 babd
000000b0: 431f 12be 434c a33d d516 83bd 5af8 7bbd
000000c0: 9831 c53d 93f2 41bd 9996 af3d 035c 243c
000000d0: 5f4a 503d 2d15 803c 8ee6 8dbc 8ef3 3dbc
000000e0: 6eec fc3d 7c43 8c3d 883a bebd 04e9 df3d
000000f0: b08d 12bd b062 0e3d 0bf2 bd3d 4f50 4c3d
00000100: e4bb 2a3c c259 033d ccc3 f9bd 73fb 97bc
00000110: 0ab7 d6bd d3a8 99bd e672 01be aaac f3bd
00000120: 9759 f9bd 335c 0bbe d898 903d ca04 81bd
00000130: 015f 1cbe 1972 fdbd 8410 d3bd 0f2e 12bd
00000140: 8d05 ac3d 789b e33d a5e5 19bd 32a3 ecbd
00000150: 0e1d 27bd 6065 813d 54bf e9bd 29d6 16be
00000160: 1629 7d3d 200c babd 3262 923d 5362 a7bd
00000170: de39 8abd 60c1 803d 4e58 afbb c9c5 19be
00000180: 00e7 9fbd daad d33d 9f73 c8bd 9435 343d
00000190: 6f97 983d 1d04 c43d f7b7 b13d 0104 adbd
000001a0: af21 2e3c 6e82 29bd d3a3 033c e8d2 b03d
000001b0: 58b3 44bd 6f50 83bc c095 3fbd e137 c8bd
000001c0: 18ff df3d 5cc9 ae3b e17c 0abe c9b3 95bd
000001d0: 5901 bebd eb5e b3bb 2b51 a5bd 4e6c e5bd
000001e0: be5b f3bc 7550 a83d 85a6 13be ed7f aa3d
000001f0: 020a f43c b1e2 903c d28e 03be 0f9e d5bd
00000200: 2c9c b73d 821a eebd 3eb5 c4bd ebf3 ae3d
00000210: 4fd1 efbd 622c 793d 2a90 b33d 7d15 1fbe
00000220: f901 8abc 0234 f7bd 58dc 023d 0d2b 19be
00000230: 9e29 b63d 742b c43d 88ae db3c 7408 e9bd
00000240: bc0f 54bd d6b5 01bd f606 833d 2e38 ce3d
00000250: 7979 163c 85eb 18bd 2068 53bd ba1d 19bd
00000260: 8c31 64bc 4d4f b5bc 8c8d bf3d 14c3 2d3d
00000270: 7b23 bfbd 2b95 13bd d6cd ffbc 2ab4 02be
00000280: 9fc9 573d b561 86bd 00f3 b5bd fa8f e83d
00000290: a9ce ac3d 1216 8cbc 7216 fabd 4bfb 01be
000002a0: ce23 f2bd dd75 afbd 3ec6 013c 5be8 7abc
000002b0: 5846 813b 7326 05be d6cd 96bd 29ad 7c3d
000002c0: f17c 90bd 3543 cf3d 7c08 ebbd 0cfc cc3c
000002d0: 2ef8 b5bd 8076 12be d072 183c 20ae 903c
000002e0: 91b1 fb3a bd4a 293d 4a00 fcbd c41a a6bd
000002f0: d9e0 cabd 95a4 f13d eac5 05bc 66ef 6fbc
00000300: 2dbe d5bd 416d cd3d d0a1 9dbd d423 0bbe
00000310: 8758 b73c 7e0c 1cbd d60d b0bd 6a41 203d
00000320: bbc6 fcbc 8d87 8cbd 947c 86bd 583f 753d
00000330: 8470 c5bd 1fb4 b9bd c8d2 b6bd 8821 843d
00000340: 5bef 613c c486 31bd 689b c9bd cf53 05be
00000350: 8c3a 81bd bbb7 d23b ab85 723d d1c6 d4bd
00000360: 6da5 96bb ac5a 01be 1b6a ef3a 768f 81bc
00000370: a725 d03d 7b19 6cbd dde9 08bd 8efc a4bd
00000380: 536a 40bd d516 a9bd 8074 36bd e62c 0ebe
00000390: 9c72 d83d ddb4 1bbe be6a c33c 6e72 563d
000003a0: a8de 37bd d1ea 953b 44d4 9c3c c0ee 77bd
000003b0: f6ba a83d 03be 3dbd 2057 4cbd f38b febd
000003c0: b47a 623c f6fb 493d 1595 bfbc 9b82 853d
000003d0: 431f 73bd 8865 c93d a5a9 3c3d 4b84 4dbd
000003e0: eb0d ad3c 8056 bdbd 858c 9ebd bcc0 a83d
000003f0: 9242 ba3d 71fd 64bd c13b 14be 94a5 1bbe

Recent_Layer3/MatMul_bias f4 [168]
0.0 0.0 0.0 0.0 0.0 0.0 0.0 0.0
0.0 0.0 0.0 0.0 0.0 0.0 0.0 0.0
0.0 0.0 0.0 0.0 0.0 0.0 0.0 0.0
0.0 0.0 0.0 0.0 0.0 0.0 0.0 0.0
0.0 0.0 0.0 0.0 0.0 0.0 0.0 0.0
0.0 0.0 0.0 0.0 0.0 0.0 0.0 0.0
0.0 0.0 0.0 0.0 0.0 0.0 0.0 0.0
0.0 0.0 0.0 0.0 0.0 0.0 0.0 0.0
0.0 0.0 0.0 0.0 0.0 0.0 0.0 0.0
0.0 0.0 0.0 0.0 0.0 0.0 0.0 0.0
0.0 0.0 0.0 0.0 0.0 0.0 0.0 0.0
0.0 0.0 0.0 0.0 0.0 0.0 0.0 0.0
0.0 0.0 0.0 0.0 0.0 0.0 0.0 0.0
0.0 0.0 0.0 0.0 0.0 0.0 0.0 0.0
0.0 0.0 0.0 0.0 0.0 0.0 0.0 0.0
0.0 0.0 0.0 0.0 0.0 0.0 0.0 0.0
0.0 0.0 0.0 0.0 0.0 0.0 0.0 0.0
0.0 0.0 0.0 0.0 0.0 0.0 0.0 0.0
0.0 0.0 0.0 0.0 0.0 0.0 0.0 0.0
0.0 0.0 0.0 0.0 0.0 0.0 0.0 0.0
0.0 0.0 0.0 0.0 0.0 0.0 0.0 0.0
00000000: 0000 0000 0000 0000 0000 0000 0000 0000
00000010: 0000 0000 0000 0000 0000 0000 0000 0000
00000020: 0000 0000 0000 0000 0000 0000 0000 0000
00000030: 0000 0000 0000 0000 0000 0000 0000 0000
00000040: 0000 0000 0000 0000 0000 0000 0000 0000
00000050: 0000 0000 0000 0000 0000 0000 0000 0000
00000060: 0000 0000 0000 0000 0000 0000 0000 0000
00000070: 0000 0000 0000 0000 0000 0000 0000 0000
00000080: 0000 0000 0000 0000 0000 0000 0000 0000
00000090: 0000 0000 0000 0000 0000 0000 0000 0000
000000a0: 0000 0000 0000 0000 0000 0000 0000 0000
000000b0: 0000 0000 0000 0000 0000 0000 0000 0000
000000c0: 0000 0000 0000 0000 0000 0000 0000 0000
000000d0: 0000 0000 0000 0000 0000 0000 0000 0000
000000e0: 0000 0000 0000 0000 0000 0000 0000 0000
000000f0: 0000 0000 0000 0000 0000 0000 0000 0000
00000100: 0000 0000 0000 0000 0000 0000 0000 0000
00000110: 0000 0000 0000 0000 0000 0000 0000 0000
00000120: 0000 0000 0000 0000 0000 0000 0000 0000
00000130: 0000 0000 0000 0000 0000 0000 0000 0000
00000140: 0000 0000 0000 0000 0000 0000 0000 0000
00000150: 0000 0000 0000 0000 0000 0000 0000 0000
00000160: 0000 0000 0000 0000 0000 0000 0000 0000
00000170: 0000 0000 0000 0000 0000 0000 0000 0000
00000180: 0000 0000 0000 0000 0000 0000 0000 0000
00000190: 0000 0000 0000 0000 0000 0000 0000 0000
000001a0: 0000 0000 0000 0000 0000 0000 0000 0000
000001b0: 0000 0000 0000 0000 0000 0000 0000 0000
000001c0: 0000 0000 0000 0000 0000 0000 0000 0000
000001d0: 0000 0000 0000 0000 0000 0000 0000 0000
000001e0: 0000 0000 0000 0000 0000 0000 0000 0000
000001f0: 0000 0000 0000 0000 0000 0000 0000 0000
00000200: 0000 0000 0000 0000 0000 0000 0000 0000
00000210: 0000 0000 0000 0000 0000 0000 0000 0000
00000220: 0000 0000 0000 0000 0000 0000 0000 0000
00000230: 0000 0000 0000 0000 0000 0000 0000 0000
00000240: 0000 0000 0000 0000 0000 0000 0000 0000
00000250: 0000 0000 0000 0000 0000 0000 0000 0000
00000260: 0000 0000 0000 0000 0000 0000 0000 0000
00000270: 0000 0000 0000 0000 0000 0000 0000 0000
00000280: 0000 0000 0000 0000 0000 0000 0000 0000
00000290: 0000 0000 0000 0000 0000 0000 0000 0000

Recent_Layer3/RecentL3_Weight/transpose f4 [168, 160]
-0.015871326 -0.044502422 -0.10260501 0.039404575 -0.014552091 -0.15290082 -0.056022543 -0.100387886
-0.061963737 -0.1114038 0.06545247 0.0049980166 -0.040348936 -0.12407146 -0.04919131 0.08301395
-0.07374365 -0.037199162 0.031529967 -0.064504065 -0.17853352 0.10241128 0.008015651 -0.10412954
0.06783412 0.066832356 -0.17477179 -0.023140548 -0.04914359 0.010981127 -0.022311505 -0.1371099
0.040466405 0.053573836 0.062619425 -0.03000683 -0.19626756 -0.090269834 0.1781878 -0.033179045
-0.07617661 0.010456824 -0.000809155 0.1254703 0.0048018703 -0.042083822 -0.10303674 0.047273885
-0.09708444 0.099855766 0.045496292 -0.13246581 -0.06067413 -0.10555335 -0.19684935 0.11636304
0.055054035 -0.0097443955 0.010209299 -0.112511694 0.0718507 0.024216998 -0.09296689 -0.082851075
0.061537683 -0.079853274 -0.123728015 0.0054444885 0.032760907 0.10204905 -0.073545866 -0.10993702
0.11960182 -0.16409783 0.11163548 0.08580163 -0.0815183 -0.079247564 -0.13124093 -0.03968335
0.029271338 0.0011445343 0.028146403 0.043541696 -0.010119745 -0.09598978 -0.4235346 -0.06782081
0.038212053 0.0025202448 -0.0072962334 0.048217244 0.020574583 -0.008844311 -0.12324394 0.017046174
-0.2607639 0.06838074 -0.13757418 -0.078082144 -0.087712966 -0.10369054 -0.13527499 0.0051343786
-0.005055753 -0.085729495 0.015155747 -0.11870403 0.118122555 -0.13597496 -0.058925282 0.012152985
-0.061232373 -0.05431889 0.051800933 0.053983174 0.07219268 -0.029963598 -0.014433164 0.083556056
-0.14345317 -0.018503241 0.10037483 0.021627963 0.04850031 0.11745249 -0.09514988 0.1485269
-0.0058126226 -0.015284622 -0.012732404 0.052576248 0.0638112 0.0069813263 0.0035885768 -0.011141604
-0.012498734 0.07943839 -0.09136574 -0.009989343 -0.031073185 0.07535508 -0.03100166 0.11907174
-0.10518415 0.18406838 -0.038375165 -0.043231603 -0.029333426 0.106153816 -0.034055073 0.12827966
-0.041446295 -0.008436395 -0.04924251 -0.118617326 0.0030500055 -0.08748017 -0.018881207 -0.021382667
-0.11175239 0.025668338 -0.026079254 -0.025706649 0.05681763 -0.07405827 0.0037841876 -0.15124977
-0.02174505 0.018262532 -0.041772302 -0.069335364 0.07466187 -0.12858926 0.08216616 0.08440834
-0.07446731 0.031846557 0.13943933 -0.031502802 -0.17336139 -0.13403562 -0.086406074 -0.0476032
0.025538865 -0.07982441 -0.12085354 -0.03514089 0.020651145 -0.11882385 -0.011369599 0.0275007
0.10812739 0.07311466 0.08872007 0.018700363 -0.24773508 0.06438963 0.054840375 0.10571178
0.08130435 0.12405592 -0.0012885225 0.020927202 -0.13608718 -0.04892634 0.12781347 0.008306909
0.015836071 0.17434746 0.027172912 0.028631503 -0.0983731 -0.0030053975 -0.1278808 0.08798113
-0.10920026 -0.09286827 0.0887847 0.10427441 0.026077313 -0.13885972 -0.02549227 0.04314261
-0.060226332 -0.05318511 -0.13119294 0.105003506 -0.048532616 0.16944739 -0.12222136 0.010172393
0.04443856 0.040556002 -0.10067076 -0.063726634 -0.0050763786 -0.011815021 -0.027397173 0.050058812
-0.033211693 0.06778977 0.09587443 0.058782477 0.08141213 -0.012970948 -0.27579224 -0.037013344
0.12733197 -0.058124624 0.0780054 -0.045334436 0.10221429 0.08232863 -0.18372664 -0.049522534
00000000: 9504 82bc 2c48 36bd 9322 d2bd b166 213d
00000010: e56b 6ebc 0892 1cbe e577 65bd 2a98 cdbd
00000020: b0cd 7dbd ad27 e4bd f20b 863d 67c6 a33b
00000030: ed44 25bd 2d19 febd d47c 49bd 3803 aa3d
00000040: e906 97bd 265e 18bd 9125 013d b51a 84bd
00000050: 7ed1 36be 01bd d13d 1454 033c de41 d5bd
00000060: 9dec 8a3d 67df 883d 60f7 32be 3f91 bdbc
00000070: ca4a 49bd 2fea 333c 9ec6 b6bc 8a66 0cbe
00000080: 1ac0 253d 3d70 5b3d 9d3e 803d e2d0 f5bc
00000090: 5dfa 48be 64df b8bd dd76 363e c0e6 07bd
000000a0: 7c02 9cbd 1953 2b3c 791d 54ba 497b 003e
000000b0: 0259 9d3b 1660 2cbd ed04 d3bd 43a2 413d
000000c0: 35d4 c6bd 2e81 cc3d 525a 3a3d 1ea5 07be
000000d0: 7085 78bd 5b2c d8bd e092 49be bf4f ee3d
000000e0: 5780 613d f5a6 1fbc e744 273c 886c e6bd
000000f0: 7626 933d ba62 c63c 6d65 bebd d3ad a9bd
00000100: f00e 7c3d 1d8a a3bd 1d65 fdbd ae67 b23b
00000110: 4d30 063d 18ff d03d 379f 96bd a926 e1bd
00000120: cdf1 f43d 4309 28be 24a1 e43d c4b8 af3d
00000130: 11f3 a6bd 8c4c a2bd 0664 06be 028b 22bd
00000140: 72ca ef3c 3304 963a 4993 e63c c758 323d
00000150: 49cd 25bc 4a96 c4bd 87d9 d8be a3e5 8abd
00000160: 3e84 1c3d b12a 253b 3e15 efbb 727f 453d
00000170: 078c a83c bbe7 10bc 5267 fcbd 6ba4 8b3c
00000180: d982 85be 340b 8c3d 3fe0 0cbe 88e9 9fbd
00000190: dba2 b3bd b55b d4bd 8785 0abe 4a3e a83b
000001a0: bbaa a5bb f292 afbd cf4f 783c 191b f3bd
000001b0: 3dea f13d 053d 0bbe a35b 71bd 501d 473c
000001c0: ccce 7abd 7c7d 5ebd 372d 543d 761d 5d3d
000001d0: c1d9 933d 3876 f5bc 1479 6cbc 701f ab3d
000001e0: 63e5 12be 1c94 97bc 5291 cd3d 202d b13c
000001f0: 43a8 463d ee8a f03d f1dd c2bd 7017 183e
00000200: d077 bebb 5a6c 7abc 939b 50bc 315a 573d
00000210: 72af 823d 9cc3 e43b 542e 6b3b 468b 36bc
00000220: 7dc7 4cbc 98b0 a23d f61d bbbd 57aa 23bc
00000230: 318d febc c453 9a3d 31f7 fdbc e2db f33d
00000240: ca6a d7bd 6c7c 3c3e 472f 1dbd 9f13 31bd
00000250: a74c f0bc 2c67 d93d 557d 0bbd be5b 033e
00000260: 97c3 29bd ce38 0abc 84b2 49bd a4ed f2bd
00000270: 9ae2 473b ce28 b3bd c3ac 9abc b42a afbc
00000280: 70de e4bd 6846 d23c 29a4 d5bc c096 d2bc
00000290: 9ab9 683d ddab 97bd 2200 783b 38e1 1abe
000002a0: ad22 b2bc 4e9b 953c 6f19 2bbd b3ff 8dbd
000002b0: 53e8 983d e7ac 03be bb46 a83d 48de ac3d
000002c0: 5182 98bd 8971 023d 2fc9 0e3e 1509 01bd
000002d0: a685 31be a240 09be abf5 b0bd 93fb 42bd
000002e0: e236 d13c fb7a a3bd 1082 f7bd e5ef 0fbd
000002f0: 972c a93c eb59 f3bd 8e47 3abc 2649 e13c
00000300: e571 dd3d 24bd 953d deb2 b53d 8131 993c
00000310: 44ae 7dbe b6de 833d 4da0 603d 6b7f d83d
00000320: e582 a63d 0811 fe3d a4e3 a8ba 866f ab3c
00000330: 705a 0bbe fc66 48bd 89e1 023e b419 083c
00000340: a6ba 813c 2488 323e ba99 de3c 9d8c ea3c
00000350: d677 c9bd 34f6 44bb 2ff3 02be 732f b43d
00000360: 63a4 dfbd b831 bebd c1d4 b53d d28d d53d
00000370: 17a0 d53c 3e31 0ebe 2ad5 d0bc 4eb6 303d
00000380: e3af 76bd a1d8 59bd 7157 06be 140c d73d
00000390: 23ca 46bd 9e83 2d3e 314f fabd 1caa 263c
000003a0: 3505 363d 0d1e 263d 792c cebd 1c83 82bd
000003b0: c057 a6bb ca93 41bc 0970 e0bc 780a 4d3d
000003c0: fc08 08bd 5dd5 8a3d d059 c43d e5c5 703d
000003d0: 67bb a63d 1984 54bc a434 8dbe 4e9b 17bd
000003e0: 5063 023e 1614 6ebd 4cc1 9f3d 9ab0 39bd
000003f0: ba55 d13d ea9b a83d d622 3cbe 24d8 4abd

Week_Layer1/WeekL1_Weight f4 [168, 49]
-0.06552744 0.048217863 -0.014221922 0.07289163 0.03713614 -0.09093958 0.0112491865 -0.081410326
-0.15184194 -0.06349953 0.078105904 0.046957735 -2.0623072e-07 -1.3006594e-08 -0.0935953 -0.020813257
-0.025489569 0.08610694 -0.110537015 -0.10391547 -0.10314224 -0.001979068 -0.032681286 0.055912197
0.07597448 0.05842818 -0.07960502 -0.13846838 0.03067825 -0.10186647 0.06080496 -0.035953164
0.040112082 -0.06718705 -0.0664985 -4.030716e-08 0.048817594 -0.0148911625 -0.021463037 -0.10961995
-0.044242248 -0.11933189 -0.13894565 -0.0883614 -0.13421394 0.07344621 -0.03856179 -0.12602872
-0.0045343637 -0.05437608 -0.022103384 -0.14929132 0.08385037 0.036323883 -0.04400696 -1.2896068e-07
0.025025036 -4.0436575e-07 -0.14509967 0.08748037 -0.1565056 -0.014914677 -2.997927e-07 0.0141574675
0.037865475 -0.052544415 0.0741984 0.045083165 -0.03332238 0.011191013 0.021199808 -0.13155892
-0.11842117 -8.0323545e-08 0.09041047 -0.16028088 0.026979048 -1.7727804e-07 0.03636061 -5.2897377e-07
0.07494464 -0.1213795 -0.052467503 -9.2487863e-07 0.020795364 -0.16305415 -0.087142326 -5.3636544e-08
0.047615815 -0.12038616 -0.1375969 0.02297329 -0.13555473 -8.209e-09 -0.036481947 0.05782452
-0.08456858 -1.1803243e-08 0.030198053 -0.03518933 -0.13827884 -0.09741642 0.04981538 -0.046063565
0.0019005076 -0.0800289 -5.4035047e-07 -0.07425163 -0.14887057 0.03194882 -0.12467374 -0.08555332
0.026303492 0.026802478 0.036017 0.071605764 -0.023273543 -0.1523993 -0.13033779 -2.5621942e-08
-0.10390841 0.048929833 0.05080511 0.054899182 0.028311774 0.008745649 -4.1963222e-07 -0.11923682
-0.13635428 -0.053298265 0.049424216 0.002778182 -4.015079e-08 -3.3198756e-07 -6.095165e-08 -5.3804405e-07
0.054050636 -0.01936841 -0.05192259 -0.13094951 -0.14248359 -0.012816712 0.046056494 0.05319596
-0.07051959 -0.05083862 -7.72249e-08 -0.14082962 0.02768679 0.04468032 -0.006487116 -0.1230537
0.003921421 0.0034848566 0.02664794 -0.0117914975 -0.040081963 -1.5861859e-07 -0.09932789 -2.9457421e-08
-1.12885644e-07 0.01800358 -0.1428153 0.045580458 -4.954364e-07 0.042231172 -0.042729206 -4.300955e-08
0.021846373 -0.02404201 -5.507097e-07 -0.040820032 0.07853001 -1.2827519e-07 0.0007920512 -0.10118224
-0.06378391 0.03880873 0.040711083 -0.12349554 -3.1195068e-08 -0.06927764 -0.14258584 -0.014140174
-0.13762549 0.05894502 -1.0375028e-06 0.0014216292 -3.8036697e-07 -0.009526834 -3.700071e-07 -0.027271241
-0.038920566 0.030859321 -0.03847584 -1.3585701e-07 -7.859945e-08 -0.058081403 0.039478306 -0.07571052
-0.13216795 0.015038818 -0.06556491 -0.04383026 0.022153297 0.025276965 0.03588646 -0.059133418
-9.699187e-08 -0.062085167 0.013027244 -0.04982669 0.030161224 0.068119325 -0.03890048 -2.8972988e-07
-1.204686e-07 -1.2460532e-07 -2.0367469e-07 -0.110485636 0.09859976 -0.008795157 -0.08258809 -2.3486815e-07
0.0186915 -0.012648061 0.022083983 0.043260783 -3.9493497e-07 -1.18179e-07 -6.9136365e-07 -1.35684886e-08
-0.053069234 -0.0006739646 -0.07031336 -0.008345738 -0.009100571 -1.18496594e-07 0.02241234 -0.100183465
-0.12236606 -0.15276559 -0.05623471 -0.017460153 -5.510831e-08 0.02065122 0.030958323 -0.07306399
-0.06303442 -0.115664944 0.00807759 -1.4826657e-07 -0.11178459 -1.3017053e-07 -0.14595929 0.037379418
00000000: 4033 86bd 1880 453d 1003 69bc 3548 953d
00000010: 111c 183d 883e babd 824e 383c 75ba a6bd
00000020: 747c 1bbe 0b0c 82bd fdf5 9f3d c156 403d
00000030: 4570 5db4 9b73 5fb2 e5ae bfbd 9080 aabc
00000040: 80cf d0bc d658 b03d 3b61 e2bd a2d1 d4bd
00000050: 3d3c d3bd 40b3 01bb d0dc 05bd 3004 653d
00000060: 8298 9b3d 6352 6f3d f507 a3bd a8ca 0dbe
00000070: f450 fb3c 5e9f d0bd 9f0e 793d a043 13bd
00000080: 914c 243d 5d99 89bd 5e30 88bd 311e 2db3
00000090: f5f4 473d 10fa 73bc 40d3 afbc 6d80 e0bd
000000a0: 5c37 35bd 4764 f4bd c547 0ebe d2f6 b4bd
000000b0: 616f 09be f76a 963d f8f2 1dbd ac0d 01be
000000c0: 0095 94bb 74b9 5ebd 2812 b5bc d3df 18be
000000d0: beb9 ab3d 5ac8 143d a440 34bd 7178 0ab4
000000e0: 4e01 cd3c 9b17 d9b4 0295 14be e928 b33d
000000f0: 0143 20be b05c 74bc 32f3 a0b4 b9f4 673c
00000100: d418 1b3d d038 57bd 55f5 973d 20a9 383d
00000110: 0c7d 08bd 835a 373c 38ab ad3c 62b7 06be
00000120: cc86 f2bd 567e acb3 2029 b93d ac20 24be
00000130: 2a03 dd3c d159 3eb4 ddee 143d cdfe 0db5
00000140: 937c 993d d195 f8bd 2ae8 56bd 2d45 78b5
00000150: 0a5b aa3c abf7 26be ad77 b2bd 015e 66b3
00000160: cd08 433d 058d f6bd 34e6 0cbe 7b32 bc3c
00000170: dcce 0abe 9007 0db2 186e 15bd 67d9 6c3d
00000180: 4b32 adbd 36c7 4ab2 e861 f73c b022 10bd
00000190: f898 0dbe 4382 c7bd 360b 4c3d 26ad 3cbd
000001a0: 741a f93a 31e6 a3bd 9a0c 11b5 3d11 98bd
000001b0: 8771 18be c4dc 023d f254 ffbd 9436 afbd
000001c0: 6c7a d73c df90 db3c 9086 133d 0ba6 923d
000001d0: 28a8 bebc 900e 1cbe 4577 05be 3f17 dcb2
000001e0: efcd d4bd a66a 483d 0519 503d f7dd 603d
000001f0: 18ee e73c e949 0f3c d049 e1b4 6f32 f4bd
00000200: 75a0 0bbe 484f 5abd 0c71 4a3d 2912 363b
00000210: 4372 2cb3 063c b2b4 86e4 82b3 1b6e 10b5
00000220: 3364 5d3d 80aa 9ebc c8ac 54bd a117 06be
00000230: 38e7 11be 30fd 51bc bca5 3c3d 02e4 593d
00000240: 936c 90bd 283c 50bd d6d6 a5b3 a435 10be
00000250: 68cf e23c b602 373d e091 d4bb 9403 fcbd
00000260: 437f 803b 3162 643b c84c da3c 2031 41bc
00000270: fc2c 24bd bf50 2ab4 6c6c cbbd 8e09 fdb2
00000280: 8a6b f2b3 3e7c 933c 2d3e 12be 93b2 3a3d
00000290: 21fe 04b5 98fa 2c3d d204 2fbd 80b9 38b3
000002a0: 2af7 b23c c0f3 c4bc 7bd4 13b5 e832 27bd
000002b0: 58d4 a03d 04bc 09b4 a8a1 4f3a a238 cfbd
000002c0: 23a1 82bd e7f5 1e3d aac0 263d 3beb fcbd
000002d0: 57fb 05b3 6fe1 8dbd 0602 12be 30ac 67bc
000002e0: b2ed 0cbe 5570 713d 5340 8bb5 f655 ba3a
000002f0: 3d35 ccb4 7016 1cbc 63a5 c6b4 f067 dfbc
00000300: 2c6b 1fbd b0cc fc3c d898 1dbd 17e0 11b4
00000310: 81ca a8b3 c4e6 6dbd 01b4 213d 1e0e 9bbd
00000320: 0957 07be 6065 763c e546 86bd 5c87 33bd
00000330: d57a b53c a311 cf3c aefd 123d e235 72bd
00000340: d849 d0b3 044d 7ebd 3970 553c 1217 4cbd
00000350: ac14 f73c 2582 8b3d 1c56 1fbd 2c8c 9bb4
00000360: 285a 01b4 40cb 05b4 acb1 5ab4 4b46 e2bd
00000370: acee c93d 9019 10bc f223 a9bd 1130 7cb4
00000380: eb1e 993c d039 4fbc 78e9 b43c 3832 313d
00000390: 7307 d4b4 98c9 fdb3 2696 39b5 d81a 69b2
000003a0: 205f 59bd 00ad 30ba 7300 90bd 90bc 08bc
000003b0: 901a 15bc 3178 feb3 159a b73c fd2c cdbd
000003c0: 0f9b fabd 956e 1cbe 5e56 66bd 9808 8fbc
000003d0: 3ab0 6cb3 bf2c a93c 4f9c fd3c 93a2 95bd
000003e0: 3118 81bd bee1 ecbd de57 043c 3433 1fb4
000003f0: 52ef e4bd 01c5 0bb4 5a76 15be 291b 193d
